model.pth (torch, 54239 bytes, 21 tensors)

inception.conv_list.0.weight f4 [32, 1, 41]
00000000: bb0f cebd 4446 f53c b008 02be 8d71 19be
00000010: d823 0abe 580d 7ebd 818d b83d fa7c 90bd
00000020: 62cc 0b3e 09ef dbbc 54fa 04be e97f 8cbd
00000030: 93e3 013d 6fb5 fc3d bc32 96bd 9938 49bd
00000040: 5873 8ebd de86 e1bd a116 16bd ad3f 133e
00000050: b4e6 b53d 0284 37bd 3c8b 803d 6580 5c3d
00000060: 938a bf3d e28f f03d bf5e 233e 0170 053e
00000070: 0dde 203e e472 fbbc 7b3d f63c 76b6 4abc
00000080: 1586 75bc 80f7 11be 1b6d f03c 394a 01be
00000090: 70b0 f539 1efd 43bc db62 223e d590 e03d
000000a0: 8e40 803c 93b6 1cbc 0851 c2bd 21ea 06be
000000b0: 3d08 403d b133 073e cd3e 8f3c 5621 05be
000000c0: e4d4 cb3d 4bdd 3ebc c15b 103e da85 c43c
000000d0: 8cd5 6cbd 920a c3bb b5f6 bd3a ef1d 10bd
000000e0: 0ecf 8fbd 4cf9 cc3d 8e82 86bd fbb2 c6bd
000000f0: 6a03 f0bc 482f 66bd 3b8b a7bd 7536 e63d
00000100: 918e 72bd 5bc4 54bd 950c 513d 70dc b13c
00000110: 9644 403e a6d9 f9bd 185c 013d 7517 eebd
00000120: 827f 61be 729a 44be 45a7 bdbd a710 213d
00000130: 1f63 8b3d 5bd6 adbb e3ae 0ebe 12e6 8abd
00000140: eeb3 913c 0361 ae3d 2e99 0f3d 5ef4 97bc
00000150: 6133 133e f9c4 2f3d ddde 583d cbf7 d33d
00000160: ba9a 2d3d b658 c7bc 2347 9d3d b5fd bb3d
00000170: a57d cf3c 0aff bf3d c009 c3bd 16bc f0bd
00000180: d28a a13d dc5d 03be e802 68bd b6e8 353d
00000190: 83cd 9c3d 8ab6 be3d 971f a3bb aea0 aa3d
000001a0: 9091 d53d 1ffe 08be 2748 adbd a1de 103e
000001b0: 509d c63d dd52 6f3d c2a7 623d 342b 8b3d
000001c0: 22db 22be 60bb 883d ed14 373e ad2e 4e3e
000001d0: 22a2 b43d 6cc2 753d ffc7 16be d871 6cbd
000001e0: ad61 d53b 6a63 a03d dece 8dbc cb10 2ebd
000001f0: c26e a33d 529f 693d e05a 063e 3710 003e
00000200: d439 b5bd c2a0 0ebe 272d 603d 1905 39be
00000210: 9957 b9bd 3acc cabd 9d76 9fbc afcb 323d
00000220: 12bb 88bd 1e8d ee3c fce7 dd3d e9ff 0b3e
00000230: a368 bcbd 8124 bebd c1c5 09bd cc11 6dbc
00000240: 9443 7c3d 8586 13bd 4383 ad3d 6fbd 8fbd
00000250: c790 643d 2ebf a4bd f4ca 1abe db7e 72bd
00000260: 7975 ddbd 3016 78bd e81b 72bd 1dbc 803d
00000270: b4f5 0f3e f6c2 2f3e 38ac 173e a799 10be
00000280: a279 e83c 257b 6abd 1e91 ad3d 4214 f43d
00000290: e548 0dbe 39f1 dfbd 34ac ad3d cf21 62bd
000002a0: aea2 293d 4d56 173e f57a 41bd 97d3 6b3d
000002b0: 10c6 6d3d 217c 143d 7f22 51bc 7e1d adbd
000002c0: b0d4 e1bd 2286 3abe 05a1 87bc 0dc7 ffbd
000002d0: e9d6 cfbd 7c7f 353d 13ae c7bd 1023 163e
000002e0: 33ac 83bd bb4c 933b 3a40 973c 95ae 1bbc
000002f0: 817a 103e 92d4 493e 852e 1a3d bc9f c73d
00000300: c661 06be 6a81 3d3d 0901 f13b 8fde 38bd
00000310: eef1 e4bd 7143 1bbe 0f72 013e b937 da3d
00000320: 33f5 f6bd 0afc ba3d 59bb c1bd 9428 f2bd
00000330: 0aa3 3f3d 5353 d33c 7c97 c9bd a6b8 35bd
00000340: 106f ce3d a672 083e 076b b7bd 3349 04bd
00000350: a775 91bd 69a6 3e3d 9776 0fbe 302f 2f39
00000360: 8b56 d5bc 11cd acbd 7603 f1bd eead 083e
00000370: e013 dabd 9973 d43d 8763 5d3d 6363 34bd
00000380: 377c 5abe aa66 24be e201 4dbe 745e 3cbe
00000390: c1f5 b0bd 3570 b7bd 1c5b b73d 6dd8 b7bc
000003a0: c64d 27be 8d31 bc3d b41c 14bb 6951 a03b
000003b0: 7b8b 8dbd 20f8 2bbd 7cc1 06bd 7918 29be
000003c0: 9d37 923d d1ef dd3d f665 82bd 4585 8abd
000003d0: 3f3d 5a3d 5122 1fbd c19e 013e f0d1 f63d
000003e0: 3c41 0fbe aea6 893d b603 8d3d 25d9 813d
000003f0: d9fa 053d bb80 4d3d 2648 fbbd 2220 cb3d
-0.10061594 0.029940732 -0.12698627 -0.14984722 -0.13490236 -0.062024444 0.09011365 -0.070550874
0.13652185 -0.02684738 -0.12986118 -0.068603344 0.031711172 0.12339293 -0.073338956 -0.04912624
-0.06955594 -0.11012052 -0.036642674 0.14379759 0.08881894 -0.044803627 0.06276557 0.053833384
0.09352603 0.117461935 0.15954112 0.13031007 0.15709706 -0.030694433 0.030058613 -0.012372604
-0.014985581 -0.1425457 0.0293489 -0.1262597 0.00046861498 -0.011962203 0.15858023 0.109651245
0.015655782 -0.009565013 -0.09488112 -0.1317525 0.046882857 0.13203312 0.017486 -0.13000998
0.09952715 -0.01164944 0.14097501 0.023989607 -0.05782084 -0.005952188 0.001449308 -0.035184797
-0.070219144 0.10008487 -0.0656787 -0.097021066 -0.029298503 -0.056197435 -0.08180853 0.112408556
-0.059217993 -0.05194507 0.05103739 0.021711558 0.18776163 -0.12199716 0.031581968 -0.11625568
-0.22021297 -0.19199541 -0.0926042 0.03932252 0.06806015 -0.005305094 -0.13933901 -0.06782164
0.017785992 0.08514597 0.035058193 -0.01854914 0.14375068 0.042912457 0.052946914 0.10349997
0.042383887 -0.024334293 0.07679584 0.0917925 0.025328467 0.09374817 -0.09523344 -0.117546245
0.07887806 -0.12828773 -0.056643397 0.044411384 0.07656386 0.0931216 -0.004978131 0.083314285
0.104281545 -0.1337819 -0.084610276 0.14147426 0.09697974 0.058428634 0.055335768 0.0679535
-0.15903905 0.06676364 0.17879076 0.20134993 0.08819987 0.05999987 -0.1472473 -0.057725757
0.006511888 0.07831462 -0.017310556 -0.042496484 0.0798011 0.057036705 0.13120604 0.12506185
-0.088489205 -0.13928512 0.05473056 -0.18068351 -0.09049911 -0.099022344 -0.019465739 0.04365128
-0.06676306 0.029120024 0.10835263 0.1367184 -0.09199645 -0.09284306 -0.03363586 -0.014469575
0.061587885 -0.03601696 0.08472302 -0.070185535 0.055802133 -0.08044277 -0.15116483 -0.05920301
-0.10813422 -0.060568035 -0.059108645 0.0628588 0.14058572 0.17164215 0.1481179 -0.14121114
0.028378312 -0.057246346 0.084749445 0.11917926 -0.13797338 -0.109346814 0.08480111 -0.055208024
0.04141491 0.14779015 -0.0472364 0.057574835 0.058050215 0.03625119 -0.012764572 -0.08452891
-0.11026895 -0.1821523 -0.016556272 -0.12489138 -0.10148413 0.04431103 -0.09749999 0.14661813
-0.06429329 0.004495231 0.018463243 -0.009502073 0.14109232 0.19709995 0.03764202 0.09747264
-0.13123235 0.046265997 0.0073548597 -0.045134123 -0.11178957 -0.15162446 0.12641166 0.106551595
-0.12058487 0.09130104 -0.09459562 -0.11824146 0.046786346 0.025796568 -0.098433465 -0.044365548
0.10079777 0.13324985 -0.08955961 -0.03229637 -0.071025185 0.04654542 -0.14010082 0.00016706879
-0.026042243 -0.08437551 -0.11768238 0.13347599 -0.10648322 0.10373611 0.054049995 -0.044040095
-0.21336447 -0.16054788 -0.2002025 -0.18395406 -0.08640624 -0.08956949 0.089529246 -0.022442067
-0.16338262 0.091891386 -0.0022600116 0.0048925173 -0.069113694 -0.041984677 -0.032899365 -0.16513242
0.07139514 0.10836757 -0.06367104 -0.067637004 0.053281065 -0.038851086 0.12658216 0.12051761
-0.13989729 0.06721245 0.068854734 0.06340245 0.03270993 0.050171595 -0.122696206 0.09918238

inception.conv_list.1.weight f4 [32, 1, 20]
00000000: 84b3 4f3e 4a97 10be 094f 99bc 7828 003e
00000010: 625d eebd 5397 e3bd bf09 4bbe 096e f23d
00000020: a49a 943d c1d7 53be f8e9 9bbb 8365 52be
00000030: bf89 313d 8083 123c 01c0 bd3d 6ed5 073e
00000040: bcde b5bd 4b9c f03d 20e9 1abe 1b04 4c3d
00000050: a8ef 4cbe aca3 4ebd 6ede 1dbe a223 73bd
00000060: 9adc 15be c580 29be 70d1 90bd d8d6 0dbc
00000070: 26ba 52be 17da 0c3e 9bbc 62bd e8e3 57be
00000080: 0430 1cbd c80a 063b 9cb7 cfbd 8467 45bd
00000090: b031 453d 563e 24be 6519 853e ad9d a9bd
000000a0: 15ea 3f3e 7f37 8fbc 37b3 18be c2bc 20be
000000b0: 0067 833e f674 29be 7731 ec3d 3bcb cdbd
000000c0: 2af3 b43d 19d8 f13c fdbb 72be 02f1 8d3d
000000d0: cdb9 303d 0939 b9ba afe8 3a3e 1bec 1e3e
000000e0: b7e8 98bb ac7c 393e 7559 f43c 417c bb3d
000000f0: fb71 e03c a8cc 8bb9 cc70 80be 2e27 a23d
00000100: 5f28 603e 7910 4d3e 4b03 013d 36ad 1dbe
00000110: 2a3e d6bd e947 09be 2787 093d 81e3 88bb
00000120: 3cb4 863d 426a b03d ee72 d23d b7ca d1bd
00000130: 7ec5 07be 77a0 663d 143f d93d 05c9 a3bc
00000140: 4e0c 18be 5186 923b bb2d f13d f27c f639
00000150: 4b20 00be cdc7 1e3e 5ddf 073e a651 273e
00000160: 99ab 143d 6194 5dbe ceb3 bcbd fff4 30bd
00000170: a3e9 0ebe 0e66 093e f347 583e 5790 d6bd
00000180: 85b3 45be 475a d13d 64b0 35be 1272 2e3d
00000190: bec1 b13d e702 d1bd 0f30 5abd 2b86 a83d
000001a0: bbfb e1bd 2d30 36be f3b5 42be be27 cabd
000001b0: 67f6 3e3d adb8 2e3d c933 eb3c c69f 49be
000001c0: 8abb 5f3d 62a3 1dbe 41bb 01be d533 743c
000001d0: d2ac 24be 2388 8f3c c4f0 2c3e ad45 813e
000001e0: 3051 513e 1deb babd c13c c1bd aa16 043e
000001f0: 2605 2a3e b5bd 69bc 810a 283e 3d28 133d
00000200: 63f3 693d f4a1 4cbc 7fd5 34be f6bf f5bd
00000210: 84f6 16be cdea 373e 84a6 29be 49d3 27bd
00000220: 3373 e3bd bc09 05be 3b62 5dbe d030 093e
00000230: 4e4a f0bd be17 23bb 35d9 8c3d 742f 173e
00000240: 9dba 81be 4a2c 98bd badf d03d 436c 533e
00000250: ced5 95bd 862a f43d fe07 cabd 45c6 2c3e
00000260: 6e31 233e 9f28 153e 0738 2ebe 4c1f 233e
00000270: a4ac fb3d b291 20be 310c f4bd d478 1b3e
00000280: bef8 d0bd e230 3f3e 5585 753e 64b5 783e
00000290: 1714 073e f6d7 393e 64f8 30be 1543 863e
000002a0: ac17 243e 44db 1abe 2b6d 22bd 4371 853c
000002b0: 47a8 c43d ac64 513e 490b 3bbe 1896 34bd
000002c0: c0bf 7fbc 39fa 08be fe7d 09be f3cc 06bb
000002d0: 171d 90bb 9fb0 5a3e a766 023d a9e3 2cbe
000002e0: 3cf3 5cbd 663e 263e 7b0c 89bd 1c4f 8a3d
000002f0: d5ee 5ebe d1ac 6bbe ba4a 2e3e 00cb acbd
00000300: 9934 6ebc 427b 19be 7b3d 593e c3a0 32be
00000310: 0cf7 b73c cffa dabd e4a3 2f3e 5c0d d33c
00000320: a7fc fabd 3ff5 053e 3446 4dbd 6794 f23c
00000330: 3488 ff3d fc25 26be a040 e33c cd91 143e
00000340: 13e1 02be 55ca 2fbe c15b 053e ab59 823d
00000350: 6177 0c3e 9192 a03c 374f 6f3e 6308 893d
00000360: 253b 61be dfb3 cdbd 67f2 06be 869d 20bd
00000370: ac76 aa3c 1a21 083e e0c4 1c3e 44a1 52be
00000380: 3872 23be f3d1 7c3d 5bac 11be 780e 1ebe
00000390: 4dbc 1c3e 6afd f83c b7e1 003e 4168 99bc
000003a0: 53c1 f9bd 0d2c 9b3d cafb 0bbc 8f80 893e
000003b0: 962d 11bc 945e 00be 2ec2 46be ee3c 1abe
000003c0: 6729 4bbe 176b 11be 91c7 57be 1042 e2bd
000003d0: ed2c e0bd 0b90 61be 9fa4 5bbc a988 e7bb
000003e0: dbbf 3cbe 18db 103e 5cb5 193e 4562 80bd
000003f0: bd9f e93d 1522 dd3b c7e9 b83c f2a4 283d
0.20283324 -0.14120212 -0.018714445 0.12515438 -0.11638905 -0.11112847 -0.19827937 0.11837394
0.07256058 -0.20687772 -0.004758116 -0.20546536 0.043344256 0.008942485 0.092651375 0.1326501
-0.08880374 0.117485605 -0.15127993 0.049808603 -0.20013297 -0.05044906 -0.15416881 -0.059360154
-0.14634934 -0.16553028 -0.07071197 -0.00865718 -0.20578822 0.1375507 -0.05535565 -0.21083033
-0.03813173 0.0020453203 -0.101424426 -0.048194423 0.04814309 -0.16039404 0.25995937 -0.082820274
0.18741639 -0.017482517 -0.14912115 -0.15697005 0.2566452 -0.16548523 0.11532872 -0.10048529
0.08835442 0.029521989 -0.23704524 0.06930734 0.043145943 -0.0014131378 0.18252824 0.15519755
-0.0046664136 0.18113965 0.029827813 0.09154559 0.0273981 -0.00026664627 -0.25086057 0.07917629
0.218904 0.20025815 0.03149728 -0.15398106 -0.104610756 -0.13406338 0.033576157 -0.004177511
0.06577346 0.08614017 0.10275827 -0.10243743 -0.13258931 0.056305375 0.10607734 -0.019993315
-0.14848444 0.004471578 0.117763005 0.00047013868 -0.12512319 0.15505905 0.132688 0.1633974
0.03629646 -0.21638633 -0.092139825 -0.043202396 -0.13956313 0.13417837 0.21121196 -0.104767494
-0.19306763 0.10222297 -0.17743069 0.042589255 0.086795315 -0.10205632 -0.05326849 0.082287155
-0.11034342 -0.17791815 -0.1901472 -0.098708615 0.046621706 0.04265659 0.028711217 -0.19689855
0.05462221 -0.15394357 -0.12669088 0.014904936 -0.1608155 0.01752097 0.1688872 0.2524847
0.20441127 -0.091268755 -0.09435416 0.1289927 0.16603526 -0.014266421 0.16410257 0.035927046
0.057116877 -0.0124897845 -0.17659567 -0.11999504 -0.14742476 0.17960663 -0.16567427 -0.04097298
-0.11105957 -0.12991995 -0.21619503 0.13397527 -0.117329225 -0.0024885978 0.068773665 0.14764196
-0.25337687 -0.074303225 0.101989225 0.20646767 -0.07316171 0.11922173 -0.09864806 0.16872509
0.15936825 0.14566277 -0.1701356 0.15929908 0.12288788 -0.15680578 -0.11916388 0.15182811
-0.10203694 0.18670991 0.23976643 0.24287945 0.13191257 0.18148789 -0.17282254 0.26223055
0.16024655 -0.15122706 -0.039654892 0.016289359 0.09602409 0.2044856 -0.18266024 -0.044088453
-0.015609682 -0.13376702 -0.13426968 -0.0020568937 -0.004397999 0.21356438 0.03183618 -0.1688372
-0.053942904 0.1623474 -0.066918336 0.0675337 -0.21770795 -0.23015143 0.17020693 -0.08437157
-0.014538907 -0.14988425 0.21214859 -0.17444138 0.022456668 -0.10692369 0.17152363 0.025763206
-0.12255221 0.13081835 -0.05011578 0.02961178 0.124771506 -0.16225427 0.027740777 0.14508744
-0.12781172 -0.17167027 0.13023283 0.06364759 0.13717414 0.019601138 0.23370062 0.06691053
-0.21995218 -0.10044073 -0.13178407 -0.039212726 0.02080854 0.13293877 0.15309477 -0.2056933
-0.1596154 0.06172366 -0.14225905 -0.15435207 0.15306206 0.030394275 0.12586103 -0.01872647
-0.12195077 0.075767614 -0.008543918 0.26855895 -0.008860966 -0.12536079 -0.19410011 -0.15062305
-0.19840012 -0.14201008 -0.21072222 -0.11047757 -0.10946069 -0.22027604 -0.013405948 -0.0070658517
-0.18432562 0.14146078 0.1501059 -0.062687434 0.11407421 0.0067484477 0.022572411 0.04117293

inception.conv_list.2.weight f4 [32, 1, 10]
00000000: 0682 42bd cb90 77bd c95c 943e 35d7 38be
00000010: 8891 3a3e 8141 b6bd 9dab c3be c411 063d
00000020: 1300 82be 84a3 623d 9baf e53c ad3d fcbd
00000030: 3c48 05be 7819 a8bb 89e3 9bbe 88f4 95bd
00000040: 448a b93d 9a35 f3bd bda7 95be 628b 343e
00000050: 379a 35be 83b1 d13c c8dc 8d3d bf9b d73d
00000060: 5ea4 1cbe d731 923e ebde 4fbe c32b 823e
00000070: ec2e 00be 51a4 5abe f81f 3ebe 9a26 02be
00000080: 58b3 63bd 385c 5cbe a451 8e3e 4673 ef3c
00000090: dc5c 0d3e 2d1e 883e b209 2fbd c4f2 97be
000000a0: 6439 00be 92cf 1abd ba15 97bd f956 a93d
000000b0: 0fc7 ab3d 71f1 d9bd 880b 50be 227d b7bd
000000c0: 9fbc 993e ea1a 283e a5cf 033e 0c03 65be
000000d0: 5c46 6ebd 2618 0cbe 534f 03be 1abf 4f3e
000000e0: eebc 9bbe 6c9d 26be 4282 06be 1d8e 763e
000000f0: 633b 833c d81b fcbb 64ec 52be df46 4a3e
00000100: 2173 2f3e ad28 963e 9fae a9bd 133d 123e
00000110: 0401 9dbe e5be dbbd 1c2c 873d e117 253e
00000120: 89e3 253e 1212 0ebe e28e 97be e18c 783d
00000130: 04d5 48be d4f7 1fbe 2284 b5be dc11 5d3e
00000140: 44e8 44be 6663 6cbd 37f1 febd 8372 763e
00000150: 3c42 ef3b 65da 673e b8c7 433d 0738 ca3d
00000160: eb7f 163e fa91 88be cf57 23be 5d82 353d
00000170: 1ebb 503e 586f 9bbe 28fc 0c3e b977 0abe
00000180: 8af5 893e 8bba a7bd 96be 2c3d c3c4 f9bd
00000190: 0260 3e3e a958 82be e263 8f3e daf3 56be
000001a0: bfe9 1c3e 0731 013e c0e8 c2bc cd26 8fbe
000001b0: 139a 9cbe f6af 8bbe 9473 33be 8c39 62be
000001c0: 97a4 98be c9ef bb3d 46a6 37be 0206 593d
000001d0: 4f0c 873e 0bd6 8f3e 7fe5 903d 3532 fbbd
000001e0: 87bf 5b3c 204e 4a3e dded adbe 1dba 26be
000001f0: 07bd 7cbc 61ea 30bd 6adc 3cbe 9ca2 973e
00000200: 9b96 71be d92f 2a3e 8bc8 513e 9f3a 84be
00000210: db65 36be 6720 d5bd 768c 19be f28c 8e3e
00000220: 41a0 97be 887f 22be 6e98 103e 306a b03e
00000230: 194c 9c3e 0b29 56bd f747 093e cfa3 7d3e
00000240: 18f6 fb3d 0c68 a9bd 8ee4 9cbe 3a2f 923d
00000250: 6781 393e 1363 813e 5668 1b3e 95cf 87be
00000260: 0eb9 1c3d f48b c2bd 394b 9fbe d13f ce3d
00000270: 2e07 2fbe 3ce3 9c3e 18c4 99bd 58c9 923e
00000280: b5b2 8cbe c2c0 96be 635a 57be a702 b5be
00000290: 33df 4dbe 44ad 60be 79a1 5dbe dc84 a63e
000002a0: 7563 7ebe c416 96bc 1a82 d13d bbbe 13be
000002b0: 1ac4 aa3d 89c3 a8bd eac3 41be 8f20 613d
000002c0: e161 713e 0d31 a4be 7f20 893e 485c 923e
000002d0: 7796 283d 68bb 933d 6e24 393e 312d 9abc
000002e0: b978 62be 591c 8cbe e77a 773e 16c5 36bd
000002f0: 7da4 7abe 2ce5 45be cd4a 6a3e adbd 993e
00000300: b124 093e b841 a5be fa32 1e3e 3aff 493e
00000310: 5654 99be 627a 72be 1a41 7e3d e743 55bd
00000320: 174f b7bd f421 933e 8880 a13e 698e 933e
00000330: 7b45 f2bc 5d79 4c3d c530 29be 068c 8b3e
00000340: d8a0 703e 6323 6abe 7a45 b03d 6f75 1c3e
00000350: 97d3 bebd 5b72 733e adf6 873e 1f36 0abe
00000360: e004 7abe a707 abbd 68de 16bd f69a 16be
00000370: cc59 f03d 9562 10be ca5d 9dbc 5b43 c7bc
00000380: 0bb2 97be e4d8 16be 828e 0a3e 37f3 573d
00000390: 10fa 5a3e d93e 0d3c afa8 6cbe 15d5 0c3e
000003a0: 4ed9 8bbe 8abf 523d 9fa9 d5bd 6c42 d73d
000003b0: 8c42 16be 48c4 96bd 03ee 103e fdcd 00be
000003c0: 2d4a e0bd ae0c a5bc fa78 b6bd c913 b6bd
000003d0: 2083 03bc 8180 433e 4a8f 92be ccde 7e3e
000003e0: 95ae 653d 7c50 6e3e 9d67 503e e5c9 53be
000003f0: 3884 94be 2e93 413e 87b5 85be 90d0 873e
-0.04748728 -0.06044082 0.2897704 -0.18050845 0.18219578 -0.08899213 -0.38216868 0.032731786
-0.25390682 0.055331722 0.028037837 -0.12316451 -0.13015836 -0.0051299892 -0.30447033 -0.07322031
0.09059575 -0.11875458 -0.29229537 0.17631295 -0.1773461 0.02559734 0.06926876 0.10527753
-0.15297076 0.2855365 -0.2029988 0.25424013 -0.125179 -0.21351744 -0.18566883 -0.12710038
-0.055590957 -0.21519554 0.27796662 0.029229771 0.13804954 0.26585522 -0.042733856 -0.29677403
-0.12521893 -0.03779561 -0.07377191 0.08268542 0.08387577 -0.106417544 -0.20316899 -0.08959414
0.3002672 0.16416517 0.12872179 -0.22364444 -0.05817257 -0.13681087 -0.12823229 0.20287743
-0.3041758 -0.16270989 -0.13135627 0.2407765 0.016019529 -0.007693749 -0.20597988 0.19753598
0.17133762 0.29327908 -0.082852595 0.1428111 -0.30664837 -0.107297696 0.0660021 0.1612239
0.16200079 -0.13874081 -0.29601198 0.060681228 -0.19612509 -0.15621883 -0.35452372 0.21588844
-0.19229227 -0.05771198 -0.12448352 0.2406712 0.007301597 0.22641905 0.04779789 0.098739676
0.14697234 -0.2667387 -0.15951465 0.044313777 0.2038388 -0.30358386 0.13768065 -0.13522233
0.26945144 -0.08189877 0.042173944 -0.121957324 0.18591312 -0.25458267 0.28005892 -0.2099146
0.15323542 0.12616359 -0.023792624 -0.2795929 -0.305863 -0.27282685 -0.17524558 -0.22092265
-0.29813072 0.09176595 -0.17934522 0.052984245 0.26376578 0.2809299 0.07075023 -0.122654356
0.013412363 0.19756365 -0.33970538 -0.16281934 -0.015425927 -0.04319227 -0.18443456 0.2961625
-0.23592608 0.16619815 0.20486657 -0.25825974 -0.17812292 -0.10406571 -0.14994988 0.27841908
-0.29614452 -0.15868962 0.14120647 0.34456015 0.30526808 -0.052285235 0.13406359 0.2476952
0.12302798 -0.082717985 -0.30643123 0.07137914 0.1811577 0.252709 0.1517652 -0.2652556
0.03826242 -0.0949935 -0.31112078 0.10070766 -0.17092583 0.30642116 -0.07508105 0.28669238
-0.27480093 -0.29443938 -0.21030574 -0.35353586 -0.20104675 -0.21941096 -0.21643628 0.3252324
-0.24842627 -0.018321402 0.10229893 -0.14428227 0.08338185 -0.0824042 -0.18922392 0.05496269
0.23572494 -0.32068673 0.26782605 0.2858603 0.04115912 0.07213479 0.18080303 -0.018820377
-0.22116365 -0.27365378 0.24167977 -0.04462155 -0.2447681 -0.19325703 0.22880097 0.30027524
0.13392903 -0.32276702 0.15449134 0.19726267 -0.29947156 -0.23679498 0.062073804 -0.05206671
-0.08950632 0.28736842 0.31543374 0.28819588 -0.029574146 0.04992043 -0.1652251 0.27255267
0.23498857 -0.22865061 0.086070016 0.15279172 -0.09317701 0.23774092 0.26555386 -0.13497208
-0.24415922 -0.08351069 -0.036833197 -0.1470755 0.117358774 -0.14100106 -0.019209761 -0.02432411
-0.29628024 -0.14731175 0.13530925 0.052722182 0.21384454 0.008620941 -0.23111223 0.1375316
-0.27314228 0.051452197 -0.10432743 0.10510716 -0.14673823 -0.073616564 0.14153294 -0.12578578
-0.10951648 -0.020147648 -0.08909793 -0.088904925 -0.008026868 0.19091989 -0.28624946 0.24889678
0.056074698 0.2327289 0.20352025 -0.20682485 -0.29007125 0.18903801 -0.26115057 0.26526308

inception.batch_norm.weight f4 [96]
00000000: d29c 7d3f 0ae2 7b3f 8582 753f 2f32 713f
00000010: 01b5 813f 5587 733f a732 7e3f 4bed 7b3f
00000020: 3756 7c3f a05e 763f 4e67 7b3f 3a17 793f
00000030: 4a72 6e3f d310 7e3f f6bc 803f 47a0 7d3f
00000040: b016 783f f71c 793f 9f72 6e3f f9d1 7c3f
00000050: 0cba 853f 0098 6f3f a81f 713f 7ae0 703f
00000060: 4f6e 7d3f 8397 7d3f 0688 733f 8083 793f
00000070: a186 773f ef8c 6e3f 8441 743f fbf8 783f
00000080: 17b0 7f3f a37f 773f e7c4 703f 4738 843f
00000090: 1ddf 813f 8dd2 753f d9d5 713f 767f 6f3f
000000a0: b5ca 743f 1e40 793f accf 7c3f 6b83 813f
000000b0: 4496 793f 048a 7e3f 04b0 7b3f 4088 803f
000000c0: 3c35 873f 34c9 783f fdc6 813f e214 863f
000000d0: ce26 8f3f 7be1 823f 2754 763f dcc5 7b3f
000000e0: b687 773f 9811 7d3f b47a 853f a2f5 7a3f
000000f0: 49b0 783f 78a2 753f 9c57 823f 4cb6 813f
00000100: 58fa 7a3f 8b8a 733f ba35 803f 9374 8a3f
00000110: f6e7 7b3f 6153 813f d996 8a3f ef5f 823f
00000120: 5b18 8b3f fda8 823f fad4 7a3f d193 893f
00000130: cde1 793f 46bb 7c3f f595 743f 6ea6 823f
00000140: b68f 773f 1c6b 843f 6d56 7c3f 8890 813f
00000150: 39c5 6d3f d845 853f 922e 853f eb84 743f
00000160: 3483 813f e677 823f c37b 723f e379 7c3f
00000170: 5100 803f e91c 793f 9423 753f 8efa 813f
0.99067414 0.98391783 0.9590228 0.942172 1.0133363 0.95128375 0.9929604 0.98408955
0.98569053 0.96238136 0.98204505 0.97301066 0.9314314 0.9924442 1.0057666 0.9907269
0.9690962 0.9730982 0.9314365 0.9875789 1.0447402 0.9359131 0.9418893 0.94092524
0.9899644 0.99059314 0.9512943 0.9746628 0.966898 0.931838 0.9541247 0.97254914
0.99878067 0.96679133 0.9405045 1.0329674 1.0146214 0.960244 0.9446693 0.93553865
0.95621806 0.9736346 0.9875438 1.011823 0.9749491 0.99429345 0.98315454 1.004158
1.0563121 0.9718201 1.0138851 1.0475123 1.1183717 1.0225061 0.96222156 0.98348784
0.96691453 0.9885497 1.0428071 0.98031056 0.9714399 0.9595103 1.0182986 1.0133758
0.98038244 0.95133275 1.0016396 1.0816826 0.9840082 1.010357 1.0827285 1.0185527
1.0866808 1.0207821 0.97981226 1.0748235 0.9761017 0.98723257 0.95541316 1.020704
0.9670366 1.0345187 0.98569375 1.0122232 0.9287906 1.041194 1.0404837 0.95515317
1.0118165 1.019284 0.94720095 0.98623484 1.0000097 0.9730974 0.9575741 1.0154588

inception.batch_norm.bias f4 [96]
00000000: 81be 89bb 7b18 d3bc 28c9 5cbd a674 00be
00000010: d950 b2bb a69e 77bd 1de4 d5bc d582 97bd
00000020: 9ceb 973c 8911 83bd c5c0 1fbc ea5f 7aba
00000030: 33d8 19bd 1681 19bc aab6 8dbb 8930 84bc
00000040: 4ebe 54bc 474f f9bc a1f6 a1bc 0564 633c
00000050: b676 2c3d 2d49 36bd 51d1 2abd ff97 3dbd
00000060: c757 2abd 8b55 c5bc 07c6 22bd 082f d1bd
00000070: 8bc6 99bd d32c cbbd 53fd 27bd 11a9 90bb
00000080: 7fa9 a4bc d6fe 1cbd 6d8a 2fbd b15a 21be
00000090: 9273 d5bc c6ba 1dbc ce8f 34bd 700b 9cbc
000000a0: af20 95bc e10f 12bd ed1b 253d 4ea9 7bbd
000000b0: f463 833b 069d 563c 55b2 ffbd 877f 1dbd
000000c0: 9176 a63d ec38 64bd 331a 6ebd 685c bebc
000000d0: 8b48 21bd bd08 2d3d c0ac 03bd 0720 fe3c
000000e0: 3b48 a0bd 0890 e7bc 18f4 2fbd 4445 49bd
000000f0: 4380 2a3d c304 47bd dbb4 5a3c ab23 26bd
00000100: 68f3 ebbc 33a6 89bd 9bf3 d6bc a703 afbc
00000110: 54ee 8ebd 614e dd3c b2e7 d63b f3b4 19bd
00000120: 7a17 553c fef8 ae3b 965b a3bd 56f8 ffbc
00000130: 03be 2fbd a867 9abd f15f b43c 65ea 263d
00000140: 1150 c4bc db73 54bd e0e7 16bd c5d6 393b
00000150: 40b1 9ebd 29a2 9cbc 20bf 5bbd 9a85 bbbd
00000160: 3c67 89bc d7f3 00bd 13fd 35bd 21dd fdbc
00000170: c3b2 90bd bfd1 0fbd 0abc 5dbd 97ab 0ebc
-0.004203618 -0.02576851 -0.053902775 -0.12544498 -0.0054417667 -0.060454033 -0.02610975 -0.07398001
0.018544964 -0.06399829 -0.00975055 -0.00095510355 -0.0375597 -0.009369155 -0.004324754 -0.016136425
-0.012984825 -0.03043331 -0.019770922 0.013878827 0.0421054 -0.04450338 -0.041703526 -0.046287533
-0.041587617 -0.024088642 -0.039739635 -0.102140486 -0.07508572 -0.09920659 -0.041013073 -0.0044146855
-0.020100353 -0.038328968 -0.042856622 -0.15757252 -0.026056085 -0.00962705 -0.044082455 -0.019048423
-0.018204061 -0.035659675 0.040309835 -0.06144076 0.004009718 0.013098961 -0.12485186 -0.038451698
0.081280835 -0.055718347 -0.058130454 -0.023237422 -0.039375823 0.04224466 -0.03214717 0.031021131
-0.07826277 -0.028266922 -0.042957395 -0.049138322 0.041626226 -0.048588526 0.013348783 -0.04056136
-0.028802589 -0.06721153 -0.026239207 -0.021364046 -0.06979051 0.027014913 0.006558382 -0.037526082
0.0130060855 0.005339741 -0.07976453 -0.031246345 -0.04290582 -0.07539302 0.022018405 0.04075088
-0.02396396 -0.0518683 -0.036842227 0.0028356772 -0.077486515 -0.019120293 -0.053649068 -0.09156342
-0.016772859 -0.031482544 -0.044430804 -0.030989232 -0.07065346 -0.03511214 -0.054134406 -0.008707902

inception.batch_norm.running_mean f4 [96]
00000000: 5785 03be 1e9f d33c 5630 963d 079a 84bd
00000010: b042 91bc 3dc3 e2bc 057f e33d 75ac 8e3c
00000020: bd3c 9f3c 30d8 0fbe b12a c0bd 2cca 253d
00000030: 3fb6 98bd 10ec 08bd 86fd 61bd 7929 3e3d
00000040: 34c4 b53c 24d9 71bd 1126 893d 8f62 b13b
00000050: a880 893c dbb2 c9bc c08d 1bbd b69e f13d
00000060: c120 c437 446b 373d 7df2 c83d 2b6b 33be
00000070: 8d5c 9a3d 2cba 603d 5db5 343e 7e54 82bd
00000080: fd55 773b 760c 9abd a4ac fe3b 8d59 e83b
00000090: 9950 a13a 8961 2abd 851a c63c 6b63 54bb
000000a0: 40ce 8b3d a0b3 123c db8e 463c 0b96 6b3c
000000b0: e1d3 b0bd 28ac c2bc 73bd d2bc 6981 e6bb
000000c0: 07bc c4bc 5948 023d 5516 3cbc 46a0 32bc
000000d0: 2837 02bc 10fd 61bc c80e 6cbd 3f63 2b3d
000000e0: 4d11 373c 4b0c d939 4c77 0c3c ef7f 363c
000000f0: 9118 c53c d4e5 3c3d d832 a23c b37c 33bc
00000100: bd9b 25bc 144d 1fbc 47eb fcbb ea7f 7abc
00000110: 6b69 54bb c5f2 05bc 8164 dcbb 48ce 8e3a
00000120: 7b67 0cbc 0df4 a0bb c559 5bbc cb94 34bc
00000130: b74f 1dba b879 7b3a cea1 b73c 83f1 d63b
00000140: 0114 0abd 64a2 253c 7e69 a0ba edff 453c
00000150: 10b8 943c efcb 63ba 7512 df3b f00c 5abc
00000160: f4b6 5ab9 6d0c 733b 228d 0e3c 4acd 7fbc
00000170: 1e97 653c cd1c 8abb 550d 4b3b da15 783c
-0.12843834 0.025832709 0.07333438 -0.06474691 -0.017731994 -0.027680987 0.111082114 0.017416218
0.019438142 -0.14047313 -0.09383143 0.04047601 -0.07456636 -0.03342825 -0.05517342 0.04642627
0.022188284 -0.059044972 0.06696714 0.0054133604 0.01678498 -0.024621418 -0.03797698 0.1179785
2.3380273e-05 0.04478003 0.09811876 -0.1752135 0.07537184 0.054865047 0.1764731 -0.06363772
0.0037740462 -0.07521908 0.007772045 0.0070907534 0.0012307345 -0.041596923 0.024182567 -0.003240789
0.068264484 0.008953959 0.01211902 0.014379035 -0.08634163 -0.023763731 -0.025725102 -0.00703447
-0.02401544 0.031807277 -0.011479934 -0.01090247 -0.007947721 -0.013793245 -0.057631284 0.041842695
0.011173558 0.00041398624 0.0085733645 0.0111389 0.024059566 0.04611762 0.019799635 -0.010955024
-0.010107932 -0.009722967 -0.007718477 -0.015289286 -0.0032411467 -0.008175557 -0.006725848 0.0010895217
-0.008569594 -0.0049119056 -0.013388102 -0.011021803 -0.0006000953 0.00095930276 0.022416022 0.006559552
-0.033710483 0.010109518 -0.001223847 0.012084943 0.018154174 -0.0008689751 0.00680762 -0.013308749
-0.00020858255 0.0037086264 0.008700641 -0.01561291 0.01401308 -0.004214859 0.0030983288 0.015141929

inception.batch_norm.running_var f4 [96]
00000000: 2d7d 243f 59c6 8e3e 56d3 083f 2643 3d3e
00000010: 3303 873e 6da7 7d3f 6764 df3e 3f10 243f
00000020: fded 2d3e 7836 ce3e b32a 103f aa76 353e
00000030: e549 aa3e 81dc 113e a54d ec3e ac72 623f
00000040: 226a 053f 02d7 d63e d80f a73f abe7 9c3e
00000050: e4db 0d3e 4347 d53e 918e a73e 37fe 233f
00000060: f027 3e3e c064 643e 192a c53e 4879 0d3f
00000070: 6897 8e3e e9f5 ec3e 1056 e33e 6104 8b3f
00000080: fb47 0b3e 56ed 8b3f f08b a83e 3438 713c
00000090: 40a5 8c3d fe86 003f 9261 ed3e 7b1d 873e
000000a0: 12ed 743f 9edc ec3d 6d64 883d e932 913d
000000b0: 3eba 813f bda4 dd3e f0ba 783e 8531 473e
000000c0: 4b92 1a3e 318e 973e 0fb5 aa3d a57f 3f3d
000000d0: 7b8f 543d 72f3 d33c 05ad 623f dae6 713f
000000e0: b7be 093f e9d3 0c3e 5906 023e 92be b93d
000000f0: 1002 123f ff89 6f3e ae30 a13d a3df 193e
00000100: 1f6a 5e3e 3edc 003f 75f3 ae3c 2564 8b3d
00000110: 4ba9 8b3d e65c ad3e d60e 973d 6b77 ae3e
00000120: 2c1a a03d 74b6 163c 9ab7 f33e 3b50 823e
00000130: ed34 013e 0941 243e b262 043f b70a f13d
00000140: 494b 2040 52fe f13d 9a0c 913e 10e1 473e
00000150: 8466 4f3f 2cc8 1b3e de48 933d 2179 563e
00000160: 1a2d 013e a54f 313d b203 ed3d d0df a43e
00000170: 1f9d 9d3d 7628 143e d3e6 033e cd46 ed3c
0.64253503 0.27885702 0.53447473 0.18482646 0.26369628 0.99083596 0.43631288 0.6408729
0.16985317 0.4027593 0.56315154 0.17721048 0.33259502 0.14244272 0.46152988 0.88456225
0.5211507 0.41960913 1.305171 0.306455 0.13853413 0.4165593 0.32725957 0.64059776
0.18569922 0.22304058 0.3850868 0.55263186 0.2784989 0.46281365 0.44401598 1.0860711
0.13601677 1.0931804 0.32919264 0.0147228725 0.068674564 0.5020598 0.46363503 0.2638968
0.9567424 0.11565517 0.0665978 0.070897885 1.0134962 0.43289748 0.24290061 0.19452484
0.15094869 0.2960067 0.083353154 0.04675259 0.051894646 0.02587292 0.88545257 0.94492877
0.5380663 0.13752712 0.12697734 0.090695515 0.570344 0.23392485 0.07870613 0.15026717
0.2172017 0.5033606 0.021356324 0.068062104 0.068193994 0.33859938 0.073758766 0.34075484
0.07817492 0.009198774 0.47601014 0.25451836 0.12617846 0.16040434 0.517131 0.11769622
2.504595 0.11816086 0.28329927 0.19519448 0.810158 0.15213078 0.07191633 0.20944645
0.12614861 0.043288846 0.115729704 0.32202005 0.07695984 0.1446856 0.12881021 0.028964425

fcn_modules.0.separable_conv.depthwise.weight f4 [96, 1, 41]
00000000: 8e32 dd3d 8535 ebbc 2961 76bc 0bcf dfbd
00000010: 1e85 c9bd 600f 04bb ec28 4dbc 1654 ee3d
00000020: 8246 15be b7be f83d 60cf 24bd 7370 8abd
00000030: 065c 343e bc40 213e bbe6 fcbd ddc9 3a3e
00000040: 198c b0bd 89af 92bc 8135 95bd 44b4 133d
00000050: 5adf d53d ceec 45bd 5bbd c5bc 07e0 4dbb
00000060: d3ef bdbd ca37 caba 833e 20bd 1cd3 013e
00000070: 3670 203e d513 ef3d adaf 43bd ab51 053e
00000080: dbfc 91bd e4a6 d3bd 3d2a c3bd 76e3 0abe
00000090: 4770 5c3d 6f57 313d 09ec 253d d8f1 a03d
000000a0: 7049 343e 1bb4 803c eb2d ca3d 3ee0 4f3e
000000b0: dd41 93bd 801a 25be f994 b73d d745 eb3b
000000c0: e6b4 bb3c 7429 ffbc 4a46 19be f45f e3bd
000000d0: 5e9a 1d3e a3ad 9f3d 52a8 80bd dabf b6bb
000000e0: 2f23 1bbe 55be 6e3d 165a 6b3c 79a5 4d3d
000000f0: 06dd 24bc 901d 433d 9a36 9cbd 9ea3 a03d
00000100: c4cc 2cbd 9fa0 f53b a39d 87bd 6114 f53d
00000110: ce8d 28bc 4a64 f93c 0282 5a3d c90c 1abe
00000120: cbad 06be 36a5 a03c 6565 253e 6fac a63c
00000130: 5465 0a3d c0a7 abbc b774 1bbd 3e86 f0bc
00000140: 6d65 69bd 80d6 8e3d 1570 ab3d 928b 12bb
00000150: 0bf3 003d c5cb 333c c475 a13d 49fd f33d
00000160: c140 673c aade 1bbe 363b bc3d 5d88 8cbd
00000170: bcdf f7bb a3ee 133e 6e82 9bbd d0a1 113e
00000180: 5a0b cfbd 3d07 93bb a76c bf3d 06ea 61bd
00000190: 88ae bfbd a9a5 07bd a584 de3d dc52 893d
000001a0: 9e29 f0bd b722 fb3d 1f5c d8bd d8af 2abe
000001b0: 9084 37bd 3554 153e e785 913d 8387 b9bd
000001c0: 5675 57bd aafe f83d 5b40 b2bd 9e92 7cbc
000001d0: 9146 15be 41e8 fabd d801 63bd b0f5 8a3c
000001e0: 24e8 863d 1503 a33d 4765 fa3d 3f36 adbc
000001f0: e59b 06be 1be3 73bd 0bed 97bd 1087 253d
00000200: 25a4 92bd f49e 373d 0a23 13be a93c cbbd
00000210: 871f cebb 254b ac3c c847 9b3d 522a a93d
00000220: a83f 423d 3ee1 dcbd 91a3 f53c 854c c7bc
00000230: 8496 55bb 7fb0 113d 50eb bb3c 181b c13d
00000240: bb00 323d e6d5 19bd 1dcc 59bb 0cc1 8fbd
00000250: fc91 e23d c7c2 833d 5770 c73d 2acd aa3d
00000260: 0e1c 583d 3be7 50be 4f0c 0e3d 89a4 373d
00000270: c278 0a3e 5e76 3b3e dfe0 b9bd 61cd b0bd
00000280: e57e 263d 28b4 0bbd d9fc 433c 2f66 783c
00000290: ecca 46be 5ad1 843c 1b43 e23d 68d7 ce3d
000002a0: f12e 0e3e e905 98bd ab90 f6bd 4a4a 143e
000002b0: ff1e d8bd 5950 053c 4272 e33d 40ac 07be
000002c0: c73d e0bd 42cd 083e 39b3 333c af54 083e
000002d0: d6af 183d 5b96 28be 8a73 e93a a68e 793d
000002e0: b575 c3bd 8c56 0f3e f72c 293d 61cd 673d
000002f0: 5019 ebbd e07b 9f3c d95f 15bb c79b a2bd
00000300: da51 0f3e 12cb 2ebe 4797 26be 4ea3 19be
00000310: bc6f 2e3e 2031 c5bd 2cc0 173e 05c2 153d
00000320: 6548 57bd 4581 9b3d fd6a 16be 071f d5bc
00000330: d3ec 703d 7919 d8bd 5416 cfbd 1240 1cbe
00000340: 6075 b53b ba26 44be b795 28bd d191 b2bd
00000350: a330 0e3e 2c49 d63d 6f51 5fbc 3a7c c73d
00000360: 7f86 f9bc 38fb 123e e90d a13d 21b5 3dbe
00000370: b795 8ebd 10c6 1bbe df99 19be 81d8 043e
00000380: 10a3 39bd d011 8d3c 477e 2c3d 341a 97bd
00000390: c920 6c3c c10a ce3d d0f9 d63d 4b1e 443d
000003a0: bc01 6f3c 8b8a 713c 7114 47bd 8af8 2a3c
000003b0: 410c b6bd 3030 7a3b d2fe b53d 39d0 dabb
000003c0: 2032 56bc 31c8 a5bd 8f2a 4ebc 6e6c 7ebd
000003d0: 1204 0abe 8248 833d 4079 013e 94b8 553b
000003e0: 012d f93d a3ff a83d 45c8 1cbe 640b cdbd
000003f0: 8764 af3d ccad 123e 8b81 b73d 6107 f43c
0.10800658 -0.028712044 -0.015037813 -0.10928162 -0.09839843 -0.0020150766 -0.012521964 0.11637132
-0.14577678 0.12145751 -0.04023683 -0.06759729 0.17613229 0.1574735 -0.12348696 0.18241067
-0.086204715 -0.017905967 -0.07285596 0.036060587 0.104429916 -0.048321538 -0.024138143 -0.0031414048
-0.092742585 -0.0015428003 -0.039122116 0.12678188 0.15667805 0.116737045 -0.04777496 0.13019435
-0.071283065 -0.10334566 -0.09529541 -0.13563332 0.053818014 0.043296274 0.040508304 0.07858628
0.17606139 0.015710881 0.098720394 0.20300385 -0.07190297 -0.1612339 0.08963961 0.0071799564
0.022913408 -0.031147696 -0.1496822 -0.11102286 0.15390918 0.077967905 -0.062821046 -0.0055770697
-0.1515014 0.058286984 0.01436474 0.050206635 -0.010062462 0.047635615 -0.07627602 0.078437075
-0.042187467 0.007495954 -0.06621864 0.119667776 -0.010287715 0.03044333 0.05334664 -0.1504394
-0.13152234 0.019610029 0.1615196 0.020345895 0.03378804 -0.020954013 -0.037953105 -0.029360887
-0.056981493 0.069745064 0.08370987 -0.0022361022 0.031481784 0.010973875 0.0788379 0.11913545
0.01411456 -0.15221658 0.09190981 -0.06861947 -0.007564513 0.14446501 -0.07593237 0.14221883
-0.10109587 -0.004486947 0.09346896 -0.055154823 -0.09359461 -0.03311697 0.10865144 0.06705257
-0.11726688 0.12262481 -0.10564446 -0.16668642 -0.044804156 0.14582904 0.07105618 -0.0905905
-0.052602135 0.12157948 -0.08703681 -0.015415816 -0.145777 -0.1225133 -0.05542168 0.016962856
0.06587246 0.07959572 0.12226348 -0.02114403 -0.13145407 -0.059542757 -0.07418259 0.04041201
-0.07160214 0.044829324 -0.14368835 -0.099236794 -0.0062903794 0.021031925 0.075820506 0.08260025
0.04742399 -0.10785149 0.029985221 -0.02432848 -0.0032590935 0.03556871 0.022939354 0.09428996
0.043457728 -0.037557505 -0.0033233233 -0.07019243 0.110630006 0.06433635 0.09738224 0.08339913
0.05276113 -0.20400707 0.034679707 0.044834647 0.13522628 0.18306872 -0.09076094 -0.08632923
0.04064836 -0.034107357 0.011962139 0.015161081 -0.19413346 0.016213108 0.110479556 0.10099679
0.13885094 -0.07423002 -0.12039312 0.14481464 -0.10552787 0.008136832 0.11105777 -0.13249302
-0.10949283 0.1335955 0.010968023 0.13313554 0.037277065 -0.16463606 0.0017810923 0.060927056
-0.09543935 0.13997859 0.041302647 0.05659235 -0.11479437 0.019468248 -0.0022792725 -0.079398684
0.13996068 -0.17069653 -0.16268645 -0.15003702 0.17034811 -0.096285105 0.14819402 0.036561985
-0.052559275 0.075930156 -0.1468925 -0.026015772 0.058819603 -0.105517335 -0.101116806 -0.15258816
0.005537674 -0.19155398 -0.041158404 -0.087192185 0.13885741 0.10463175 -0.013630255 0.09740491
-0.03045964 0.14353645 0.07863981 -0.18526126 -0.069621496 -0.15212274 -0.15000103 0.12973215
-0.045321524 0.017220408 0.042112615 -0.07378045 0.014412113 0.10060645 0.10496867 0.047880452
0.014587816 0.014742504 -0.04860348 0.010435233 -0.08889056 0.0038175695 0.08886494 -0.006677654
-0.013073474 -0.08094824 -0.012583389 -0.062115125 -0.13478115 0.06410314 0.1264391 0.0032611238
0.12166787 0.08251884 -0.15310772 -0.10011938 0.08564096 0.14324111 0.08960255 0.029788675

fcn_modules.0.separable_conv.pointwise.weight f4 [32, 96, 1]
00000000: 0377 a73c 92cb b03d 202a 9b3c d36e 47bd
00000010: 7386 5f3d 0427 c33d 2359 19bd 6dca 963d
00000020: 2610 45bd 8176 59bc e8a7 593c 4815 913d
00000030: 6572 c83d 2e82 adbb bbe4 94bd 7ebf c1bd
00000040: 6c06 aabd ab07 b43d ffef b4bc 04ed bf3c
00000050: 9049 2ebd b11c 49bd b4f6 c13d 57ac 993d
00000060: d711 d0bb 0113 ec3d 7160 e6bd 4c3b 7dbd
00000070: 6964 3fbd 0415 823c ae4c 083d 5d72 673d
00000080: 7bbb 5fbd 07e3 8b3b 0705 52bd cffd 6a3d
00000090: 1ae5 963c 6bdf 93bd d916 1fbd 4240 c0bc
000000a0: 0ae4 c9bd 00ba c2bd f48a 48bd f25b 673d
000000b0: 325c 87bd 25e7 54bd 731c a5bd 5589 32bd
000000c0: 7241 bcbc 20dd bfbd 9452 be3d 699c d4bd
000000d0: 13e0 20bd cae7 fe3d f0f6 cb3d ac8c 073d
000000e0: e61b dfbb 0e7f 2fbc e58c 79bd ba53 d0bd
000000f0: eaa8 82bc 86f6 173b 20bc b33a 5fa8 a43c
00000100: c7e5 d6bd 41b8 10bd 2d78 06be 009c f83c
00000110: 0607 a23d 68b4 8ebd 2a5f 90bc 93d3 373d
00000120: 49af 1d3d 4c94 703d 0dac 5d3d d512 71bd
00000130: 0619 9f3d 9c97 43bc 7c40 f4ba 21c5 273c
00000140: b98f 00bd e694 ed3c 7ee8 953d 6c36 ccbd
00000150: 0c5e 4bbd 2274 f9bc 03d8 fb3c 1274 94bc
00000160: 3831 d03c ca73 6bbd 07ad cdbc 82b5 67bd
00000170: e6bb 01be c568 4b3d b1a9 7abd d35a adbd
00000180: e17b 75bd afa8 c23d 4a51 f8bd a74c 75bd
00000190: 2bb4 c4bc cd42 883d 9056 a33c 6de4 a73c
000001a0: 06a1 88bc c535 56bd 8f21 8f3d caf4 6a3d
000001b0: e2ab 39bd 0e16 cabd fb56 58bd ea0f 733d
000001c0: d8fa 8f3d 0bb4 89bd cf8d 353d 6f16 56bd
000001d0: 9ef2 c13d 9a26 053d d834 cf3c f0f1 0cbe
000001e0: 2dee c0bd 53a3 123b 6179 c03c 2f2f b83d
000001f0: d637 483c 0d71 423c 94a6 aa3c cf2f d1bc
00000200: 8986 37bc df9a 6dbc 4ce4 b83b 892b 2e3d
00000210: 0acb 883b a67c 453d bfc2 4bbd 2aee 72bd
00000220: 4861 aebc 0333 a53d e84f 80bd b59d 6ebc
00000230: e3bf b6bd 768d fabc a908 44bd 7c84 ccbd
00000240: 2d9f 04bd 5aa4 f43c ccdf 753c 3474 cbbd
00000250: 292d aa3d 7752 fabc 1930 02bd a7be b0bc
00000260: f180 903d 9441 6b3d 1121 86bd a98d b03c
00000270: 5c95 f83c d60d 97bd 8d4d d83d 1611 3c3b
00000280: f114 203c 1adb a63d 3974 d9bd 48bb 18be
00000290: c953 fbbd 48be c1bd 9466 98bd 500d cd3c
000002a0: 0a19 933d 6525 cdbd f775 8c3c 7ad2 0f3d
000002b0: d72e 773c 2d53 40bd fa04 a73d eadd b43b
000002c0: 6fa8 87bd e868 a7bd e061 58bd 0624 3f3d
000002d0: 2d14 a53d 0db9 1dbe d4eb 72bb 189f 7fbc
000002e0: d5cb aebd 7e23 3ebd 1a0b c5bc 1a0e 733d
000002f0: a34d f5bd 176a 85bd 0da3 463b 7594 a53d
00000300: f1f7 41bd e3cb 5cbc 4101 e83c a0e9 afbd
00000310: 55fa 433d a576 853c 6024 61bd 36a3 163d
00000320: 94d6 56bc e414 8dbc 781c 113e 096f 8bbd
00000330: afca 703d 33f3 b6bc c142 fcbc b322 ea3d
00000340: c349 413d 0440 ca3d cee3 d8bd bc46 0e3d
00000350: 0859 4fbd 662e 24bd b007 a73c 6a46 cabc
00000360: c13c 5ebd dde8 77bd 4f36 03bd 01b1 a0bd
00000370: f281 583d 0b05 393d 81b0 41bd 8852 08bc
00000380: 07f4 4e3d 1e35 e0bd c78f 423d aba8 74bd
00000390: 9328 0a3c 49d3 26bd 5cd5 af3d 545b 6c3d
000003a0: c313 eb3b f12e df3d a480 983d da79 acbd
000003b0: 8d05 f7bc 39a0 d0bd fd6f d4bc 7bf2 003d
000003c0: 38cf 90bd a11c 3dbd 20f1 b23d 2c67 2dbd
000003d0: 1b6c 973d 0615 733c a0a5 8a3d ca78 b43d
000003e0: 948d dfbd 9fcd 54bd 803d ccbc da0a e33d
000003f0: 3460 7fbb 84a7 533c 7b5c 9cbd d9af 463d
0.020442491 0.08632578 0.018940985 -0.048689675 0.05457158 0.09528926 -0.037438523 0.073628284
-0.048111103 -0.013272882 0.013284661 0.07084137 0.09787444 -0.0052950596 -0.072701894 -0.09460352
-0.08302006 0.08790525 -0.022087095 0.023428448 -0.042550623 -0.049099628 0.09470883 0.07503574
-0.006349783 0.11527062 -0.112488635 -0.061824128 -0.046726618 0.015879162 0.033276252 0.05650555
-0.054622155 0.004269007 -0.051274326 0.057370957 0.018419791 -0.07220348 -0.03884015 -0.02346814
-0.09857948 -0.09508133 -0.04896064 0.05648417 -0.06609382 -0.05197825 -0.08062067 -0.043588
-0.022980426 -0.09368348 0.09293094 -0.10381395 -0.039276194 0.12446554 0.09959209 0.03309314
-0.0068087457 -0.010711445 -0.060925383 -0.101722196 -0.015949685 0.002318771 0.0013712682 0.020099817
-0.10493045 -0.03533197 -0.13131781 0.030347824 0.07911496 -0.069680035 -0.017623503 0.044879507
0.038497243 0.058735177 0.05411916 -0.05885585 0.07768445 -0.011938002 -0.001863494 0.01023987
-0.031387065 0.029001664 0.07319735 -0.09971318 -0.049650237 -0.030450884 0.03074265 -0.018121753
0.025414094 -0.057483472 -0.02510692 -0.056569584 -0.12669334 0.049660463 -0.061196987 -0.08464589
-0.059932593 0.0950483 -0.1212488 -0.059887554 -0.024011692 0.06653366 0.019938737 0.020494664
-0.016678344 -0.052297372 0.06988823 0.057362355 -0.045329936 -0.09867488 -0.052817326 0.05934135
0.070302665 -0.067237936 0.044324692 -0.052267488 0.09470104 0.032507516 0.025293753 -0.13764167
-0.094204284 0.002237518 0.023495378 0.089933746 0.012220344 0.011867774 0.020831384 -0.025535492
-0.011201509 -0.014502256 0.0056424495 0.042521987 0.004174595 0.048214577 -0.04974627 -0.059309162
-0.021286622 0.0806637 -0.06265241 -0.0145639675 -0.08923318 -0.030585032 -0.04785982 -0.09986207
-0.032378364 0.029863525 0.015006971 -0.09934273 0.08309395 -0.0305569 -0.03178415 -0.021575285
0.070558436 0.057435587 -0.06549276 0.021551924 0.030344658 -0.07375686 0.10561667 0.0028696707
0.009770618 0.08147259 -0.10617871 -0.14915192 -0.1227184 -0.094601214 -0.0744144 0.025030762
0.0718251 -0.10016898 0.017146094 0.035112835 0.015086851 -0.046954323 0.08155246 0.0055196183
-0.06623923 -0.08174306 -0.052827716 0.046665214 0.08060489 -0.15402623 -0.0037066834 -0.015601896
-0.085349716 -0.046420567 -0.024053145 0.05933962 -0.11977699 -0.06514376 0.0030309588 0.080849566
-0.047355596 -0.013476345 0.02832091 -0.08589482 0.047846157 0.016291926 -0.05496633 0.036776744
-0.013112683 -0.017221875 0.14171016 -0.06808288 0.058787044 -0.022332763 -0.03079355 0.114323996
0.047189485 0.09875491 -0.10590325 0.034735426 -0.050622016 -0.04008331 0.020389408 -0.02469178
-0.05425716 -0.06052481 -0.032034215 -0.07846261 0.0528583 0.045170825 -0.047287468 -0.008320458
0.05052569 -0.10947631 0.047500398 -0.059731167 0.008432525 -0.04072884 0.08585617 0.057704285
0.0071739866 0.10897625 0.07446411 -0.08421679 -0.030154014 -0.1018681 -0.025932306 0.031481247
-0.07070774 -0.04616988 0.08737397 -0.04233472 0.07393666 0.014836555 0.06769872 0.08812101
-0.10915676 -0.051953908 -0.02493167 0.11086054 -0.0038967254 0.012918357 -0.07634827 0.048507545

fcn_modules.0.batch_norm.weight f4 [32]
00000000: d0f4 7a3f a53a 5d3f ed85 663f 3b1e 723f
00000010: a237 6f3f fc0a 6d3f 07b0 683f 4ace 7d3f
00000020: 3938 883f a181 7e3f 0fc2 663f a943 6a3f
00000030: 8c31 693f 1e8e 6d3f 670b 7a3f 819c 6d3f
00000040: 3cc2 813f c664 7d3f f1b7 823f 78a3 6b3f
00000050: 8fb7 8b3f f1c1 903f 67fd 663f 45e6 693f
00000060: b2a6 6d3f 2f38 6c3f 6ae3 783f 30a7 713f
00000070: f656 733f 613d 723f 89e2 6b3f ee43 6c3f
0.98029804 0.8641761 0.90048105 0.9457738 0.93444264 0.92594886 0.90893596 0.991429
1.0642158 0.9941655 0.9013986 0.9150949 0.9109123 0.9279498 0.9767365 0.9281693
1.0137401 0.98981893 1.0212384 0.9204631 1.0915393 1.1309186 0.9023041 0.9136699
0.9283248 0.9227323 0.97222006 0.9439573 0.95054567 0.94624907 0.9214254 0.9229115

fcn_modules.0.batch_norm.bias f4 [32]
00000000: 5030 e03a 0b25 f3bd 9837 8dbd 8e3d 88b9
00000010: 1517 13bd a3f4 33bd 187c b8bc 4046 dabc
00000020: d527 a1bd 99eb a6bd 6453 a9bd e14e 04bd
00000030: c5aa 75bd 7eae 3dbc cacd 98bd f363 44bd
00000040: b2db 01be 59f4 77bc a06c 8cbd f0bc 8fbd
00000050: 8bdc 98bd 9c11 1a3c 84c3 89bd a7f5 46bd
00000060: 1b42 23bd 2299 a43a dc56 a4bd 5c54 5bbd
00000070: aee9 7dbd 3c10 2cbd d218 23bd cae5 54bd
0.0017104242 -0.118723 -0.06895369 -0.00025985803 -0.035910685 -0.043934476 -0.02252011 -0.026644826
-0.078689255 -0.081504054 -0.082678586 -0.032301787 -0.05997731 -0.011577247 -0.07461126 -0.04794688
-0.12681463 -0.015133941 -0.06856656 -0.07018459 -0.0746394 0.009403612 -0.06726745 -0.048574116
-0.039857965 0.0012557844 -0.080243796 -0.05354725 -0.061990432 -0.04200767 -0.039818592 -0.051976956

fcn_modules.0.batch_norm.running_mean f4 [32]
00000000: 7b25 8d3d eb96 e2bd 8aae 8f3e 8347 98be
00000010: 80f3 bdbe e13d a5be 92c4 5fbe 45e1 9dbd
00000020: f92e 02be 4d3e ef3d 8759 513d 1d47 0f3e
00000030: 2644 083f b1bb 20be 63c6 eebd 0810 58bd
00000040: f34a c03c 5c37 533e 8c16 5fbe 0079 0bbe
00000050: cf82 743e 5908 7abe eac2 9d3e 856c 89bd
00000060: a1c8 c1be 1ecb 8b3e 4411 d53e 6b41 ad3e
00000070: c61a fdbd 06e6 dd3d 246d 55bd d422 71be
0.068919145 -0.110639416 0.2806285 -0.2974206 -0.37099838 -0.32273772 -0.2185233 -0.077089824
-0.12713231 0.11681805 0.05111077 0.13991971 0.53228986 -0.15696599 -0.11658933 -0.052749664
0.023473239 0.20626587 -0.21785945 -0.13620377 0.23878025 -0.24417247 0.3081277 -0.067101516
-0.3784838 0.27303404 0.41614735 0.33838972 -0.12358622 0.10834889 -0.052106038 -0.23548442

fcn_modules.0.batch_norm.running_var f4 [32]
00000000: 6d95 7a3d 8946 593d 4e1f fe3d 9a99 5c3d
00000010: e54d c43d 6321 dd3d be35 ea3d ad63 9e3d
00000020: 944b 3b3d 3efc 6b3d c165 803d 4794 0c3d
00000030: bc0e 7b3d 7df3 8b3d 3a51 203d 057d 873d
00000040: fe47 3f3d c733 c73d 83e2 423d b724 463d
00000050: 4b79 193d cb85 b83c 1dea 623d 29d7 be3d
00000060: af83 333d ced5 633d 907f 3f3d bc41 5e3d
00000070: a781 243d 6c9a 503d e98d ce3d 6d62 353d
0.06117766 0.053045783 0.12408315 0.053857423 0.0958517 0.10797384 0.11436032 0.077338554
0.045726374 0.057613604 0.06269408 0.034321096 0.06129335 0.06833551 0.039139964 0.066156425
0.046699516 0.097266726 0.0475793 0.048374858 0.03746919 0.022524735 0.05539905 0.09318382
0.043826755 0.055623822 0.046752512 0.054261908 0.04016271 0.05092852 0.10085661 0.04428332

fcn_modules.1.separable_conv.depthwise.weight f4 [32, 1, 20]
00000000: 949a 55be 2fd4 26be ac9c 86be 9fca 8b3d
00000010: 29aa debd d469 35bd 46b1 4bbd 725f 30bc
00000020: 12dd e7bd 3929 29be e3b4 1cbe 349b bbbc
00000030: 9019 383d be77 503d 57a8 51be 820b 6bbd
00000040: 5370 adbd a6a2 e73d da97 3ebe 1a02 3bbe
00000050: 736e e6bd 9601 d5bd 9761 f6bd 6b30 c03d
00000060: 2746 c8bd 6689 53be 10b7 e53d 1bbf 373d
00000070: 7b7c de3c f710 e43c 6d26 55bd a22c 0abe
00000080: 31d7 173e 7c35 11be fc80 98bd 04e6 783d
00000090: 1991 2d3d b358 4fbd 95e2 23be 3a8e 2e3d
000000a0: c347 47bd 3022 f1bd 540d db3d 790f 23be
000000b0: 8c72 2c3e c3fd b03c 8b5e 3fbc 846d 423e
000000c0: 7469 d13a 0781 4cbe 4cd2 d43d c340 3bbd
000000d0: 83cc 9c3d 94b8 323e 9094 11be b547 913d
000000e0: 21af c7bd c111 243b 234b 4bbe 6090 eebd
000000f0: ddb0 8ebd 45f5 05be a246 64be f910 373e
00000100: d747 fe3b 8a26 2fbc 8a9f 34be 259c 813c
00000110: 676c c8bb 5727 68be e218 18be 4c29 cc3d
00000120: 5c14 bd3d 5f74 683c 3963 39be 2c96 e3bd
00000130: 0126 85bd 0412 17be 4ad7 8e3d b7a8 f03d
00000140: 5461 553e 6dc2 4f3e d0dc b2bd 9df2 bc3d
00000150: e830 fd3c 6b5b 9abd a503 e73d f5a2 2c3e
00000160: bee3 f5bd 98d2 21be 325f 943d ce55 f53c
00000170: 1f8d db3d 02d8 b5bd b063 8fbd 0c31 acbd
00000180: 2e6c 843d d971 213e be4d 4abd 0134 c13d
00000190: be55 023e df4c 12bd 6bbb 273e d12b 433e
000001a0: 4099 a2bb ed5f b73d 57b6 21be baf1 38bd
000001b0: d29a 58bd 53d4 2fbe 74c2 23bd ca3e 803d
000001c0: 06cc 3e3e e2ab 4e3c 1b37 853d 3f30 9f3d
000001d0: 7005 e03d c4e8 a63d 5e88 2bbd fdb6 753e
000001e0: c60e 1d3e 4e35 343d 7f1e 65be 5a31 093e
000001f0: b294 dbbd 7b73 06be 2560 13be 3452 d1bd
00000200: 1b2e 09be d5ba 013d f6b5 e43c 2312 303e
00000210: c898 62ba f509 b9bd 62dd 2c3e 98bd 36be
00000220: b561 eebd eb6c 3bbe 9660 0a3e 1314 243e
00000230: 537d 3f3e c436 35bc 8728 b4bd 0be7 0b3e
00000240: 3aaa 14bb 4cd5 613e 17a0 673e 022f 273e
00000250: b55d 0b3e e944 67bd 0968 5d3e b1d0 18bd
00000260: 72ae 533e e65c 563e 517f 28be e01a cabc
00000270: dd98 693e 790b c33d f337 4e3e 1cd3 d7bb
00000280: 48c1 b83b 4351 acbd 5c42 923d d627 a33d
00000290: 39c7 cebd e2ef 3dbc cab6 2b3e ceb2 663e
000002a0: ecbe 053e 47dd 15bd dada 253e 64af 673e
000002b0: 46ee 573e 2b7d 753e e25c 053e 3f6d 943d
000002c0: da16 703e dc90 493e 180d 083e 4368 9b3e
000002d0: a750 1cbd c65a 52be 92f3 0cbe a231 953c
000002e0: 5137 4fbe 3607 96bd 22ea fdbb 61f2 46be
000002f0: ba70 21be edac 0abe c03d 34be abed 7d3d
00000300: 801e 10be 2fcf 12bd f2c1 be3d bceb 9c3d
00000310: fde2 1abd d864 f8bd 4ead 3bbd e503 27be
00000320: 8945 383d 90cc 33be c3c1 363d 3b9a b13d
00000330: 1473 f13d 848d 343d dd17 42be cc85 613e
00000340: a785 04be 3d98 183e ce4e 20be 9663 363e
00000350: 70f0 05be b270 cabc 69ad 903d e7a3 16be
00000360: 77f7 43be db7e 7abe 95c5 183e dda9 e13d
00000370: 1616 0a3e 3f70 1e3e 6caa 20be ec92 43bc
00000380: da99 a03d 080c 34be bc2f f5bc f1af 933c
00000390: 3585 963d 0a81 f73a 49f8 2ebe 8d7e 2cbe
000003a0: a612 86bd de13 543d 6433 433d 7c1a 343d
000003b0: 53d5 223e 0e5f 263e a9bb 5dbd b5b4 523e
000003c0: 9bc8 d1bd 1a01 44bd 84c0 6ebd 4eb5 64bc
000003d0: e288 403e f3f4 613e c330 05bc 88f7 20be
000003e0: 4cf1 083e 81f0 a13c c84c c9bd 7835 163e
000003f0: ea00 363d ee40 bc3d 39dd 28bd 7bab e73d
-0.20859748 -0.16291879 -0.26291406 0.06825756 -0.10872299 -0.04429038 -0.049729608 -0.010764943
-0.11321463 -0.16519631 -0.15303378 -0.022901155 0.044946253 0.050895445 -0.20474373 -0.05738402
-0.0846869 0.113103196 -0.18612614 -0.1826252 -0.11251535 -0.10400693 -0.120303325 0.09384235
-0.097790055 -0.20657882 0.11216557 0.044859987 0.027158966 0.02784012 -0.0520386 -0.13493589
0.14828183 -0.14180559 -0.07446477 0.060766235 0.042374704 -0.0506217 -0.16004403 0.042616107
-0.04865242 -0.11774099 0.106959015 -0.15923871 0.16840571 0.021605378 -0.011680256 0.1898709
0.0015976862 -0.19971095 0.103916734 -0.04571606 0.07656195 0.17453223 -0.14216828 0.07093755
-0.097502 0.0025034996 -0.19852881 -0.11648631 -0.06967328 -0.13081844 -0.2229257 0.17877568
0.007760029 -0.010690341 -0.17638984 0.015821526 -0.006116438 -0.22671257 -0.14853242 0.09968814
0.09232399 0.014187901 -0.18104257 -0.111126274 -0.06501389 -0.14752966 0.06974657 0.1175093
0.20837909 0.20289011 -0.08733523 0.09225962 0.03090711 -0.07536968 0.11279992 0.16859038
-0.12006329 -0.15802991 0.072447196 0.029948141 0.10720276 -0.08879091 -0.07001436 -0.084077924
0.06465946 0.15766086 -0.049390547 0.09433747 0.1272802 -0.03571784 0.16380088 0.19059683
-0.0049621165 0.08953843 -0.15792213 -0.045152403 -0.052882023 -0.17170839 -0.039980367 0.06261976
0.18632516 0.012614222 0.06504651 0.07772874 0.10938537 0.08149865 -0.041878097 0.23995586
0.15337667 0.043996148 -0.22374915 0.13397732 -0.10721721 -0.1312999 -0.14392145 -0.10220757
-0.13396494 0.031672318 0.027918797 0.17194419 -0.0008643982 -0.09035102 0.16881326 -0.17845762
-0.1163973 -0.18303268 0.13513407 0.16023283 0.18700151 -0.01106042 -0.087967925 0.13662355
-0.002268447 0.22054023 0.22619663 0.16326526 0.13609965 -0.056462202 0.21621718 -0.0373084
0.20672014 0.20933875 -0.16454817 -0.024671018 0.22812219 0.095236726 0.2013853 -0.0065864455
0.0056382753 -0.08413937 0.07141563 0.079665825 -0.100965925 -0.011592837 0.16768947 0.22529146
0.13061112 -0.03658798 0.16196766 0.226255 0.21086988 0.23973529 0.13023713 0.072473995
0.23446217 0.19684166 0.13286245 0.30352983 -0.038162854 -0.2054244 -0.1376479 0.018212143
-0.20235945 -0.07325594 -0.007748858 -0.19428398 -0.15765658 -0.13542528 -0.17601681 0.061994236
-0.14074135 -0.035842117 0.09314336 0.0766215 -0.03781413 -0.121286094 -0.045819573 -0.1631008
0.04498819 -0.17558503 0.04461838 0.08671995 0.117895275 0.044080272 -0.18954416 0.22023696
-0.1294161 0.14901824 -0.15655062 0.17811427 -0.13080001 -0.02471194 0.07064325 -0.14710961
-0.19137369 -0.24462454 0.14919122 0.11018727 0.13484988 0.15472506 -0.15690011 -0.011936884
0.07841845 -0.17582715 -0.029929988 0.018028231 0.07349626 0.0018883061 -0.17086901 -0.1684515
-0.06546526 0.05177676 0.04765643 0.04397057 0.15901689 0.16247198 -0.054134045 0.20576747
-0.102433406 -0.047852613 -0.058289066 -0.013959242 0.18802217 0.22066097 -0.0081293015 -0.15719426
0.13373297 0.019768002 -0.09829098 0.14668834 0.044434465 0.09192072 -0.0412266 0.11312004
